dataset/price-embedding/2019-04-01-2019-04-03-lstm_model_embedding-test.npy (npy, 864640 bytes, 1 tensors)

array f4 [3377, 64]
0	0x3bcedf7f	0.006313264
1	0xbc06acf6	-0.008219948
2	0xb9227c34	-0.00015495793
3	0xbc9be138	-0.019028291
4	0xbb934340	-0.004494101
5	0xbc3d989d	-0.01157203
6	0x3cf4cd37	0.02988301
7	0x3c82e102	0.015976433
8	0x3cefd66e	0.029277053
9	0xbb6c1ffe	-0.003602981
10	0xbcba0cfe	-0.022711273
11	0xbc3b82ac	-0.011444729
12	0xbc2310e7	-0.00995276
13	0x3bf0a74c	0.007344162
14	0x3c2fabeb	0.010722141
15	0xbd1cddcd	-0.038297463
16	0x3cfc2cdc	0.03078311
17	0x3c45f595	0.012082477
18	0x3d0f51c9	0.034990106
19	0x3c7614ee	0.015019638
20	0xbbf8eede	-0.0075968346
21	0x3cd29947	0.025707854
22	0x3bae2c7c	0.0053153615
23	0xbcade28f	-0.021226196
24	0x3cea31f7	0.028588278
25	0xbc275c23	-0.010214838
26	0xbc0046bb	-0.007829363
27	0x3bbf3d36	0.0058361543
28	0xbba56d2e	-0.0050484156
29	0x3c24287b	0.010019417
30	0x3b91bc1f	0.0044474746
31	0xbc1c2549	-0.009530374
32	0x3ad025dc	0.0015880424
33	0xbce8e0d9	-0.028427528
34	0xbca216b0	-0.019786209
35	0xbba61a7b	-0.0050690747
36	0x3ca44dc2	0.020056609
37	0x3c84129e	0.016122159
38	0xbd098810	-0.033577025
39	0x3d17feea	0.03710834
40	0xbc726d8f	-0.014796629
41	0xbc11ba36	-0.008894494
42	0x3c45e9cd	0.012079668
43	0x3c462018	0.012092613
44	0xbc5a74d1	-0.013333515
45	0x3c0b37da	0.008497203
46	0x3c9615f1	0.01832101
47	0x3c88af63	0.016685193
48	0x3d152a09	0.03641704
49	0xbd173853	-0.03691895
50	0xbbe53b01	-0.006995559
51	0x3c9f50b6	0.019447666
52	0x3c3aee34	0.011409331
53	0x3c4b1fd8	0.012397729
54	0xbcb5d2ab	-0.02219518
55	0x3c0f8f32	0.008762168
56	0xbc138609	-0.009004124
57	0x3bd43d91	0.006477066
58	0x3d0ec31a	0.034854032
59	0xbce135fd	-0.027491564
60	0xbcbf9c9d	-0.023390109
61	0xbc86cae6	-0.016454171
62	0xba55a82a	-0.00081503636
63	0xbb3341d0	-0.002735246
64	0x3c81c224	0.015839644
65	0xbb62eadc	-0.003462485
66	0xbb8c24af	-0.004276834
67	0x3bd464f1	0.0064817597
68	0xbcc8549b	-0.024454406
69	0xba41f9b5	-0.0007399575
70	0x3c650cab	0.013980071
71	0x3c62c8c1	0.013841809
72	0x3d40aae3	0.04703797
73	0xbc515e96	-0.012778899
74	0xbc512290	-0.012764588
75	0xbccfdbd4	-0.025373377
76	0xbc035317	-0.008015416
77	0x3d014a5b	0.03156505
78	0x3add155c	0.0016867328
79	0xbd02f08b	-0.03196768
80	0x3d238ae2	0.03992737
81	0x3c87d03d	0.016578788
82	0x3d1a3c7e	0.037655346
83	0x3c64dc85	0.013968592
84	0x3cb3457c	0.021883719
85	0x3ca7132a	0.02039488
86	0x3bf8ce79	0.007592973
87	0xbcea29b1	-0.028584333
88	0x3c8d2add	0.017232353
89	0x3b08215d	0.002077184
90	0xbc032000	-0.008003235
91	0xbc1b7414	-0.009488124
92	0xbcf3cbfc	-0.029760353
93	0x3d0428f1	0.032265607
94	0x3c1c617a	0.009544725
95	0xbc94054e	-0.018068936
96	0x3c10ec64	0.008845422
97	0xbcc8c4a2	-0.024507824
98	0xbc9a5c4a	-0.018842835
99	0xb9f09097	-0.00045884095
100	0x3c8b8411	0.017030748
101	0x3cd23fb0	0.025665134
102	0xbc8a0b94	-0.016851224
103	0x3ce1049a	0.027468015
104	0xbc129bee	-0.008948309
105	0xbb5eaaf6	-0.0033976412
106	0xbba5e281	-0.0050624018
107	0x3c497bb9	0.012297564
108	0x3c0868a9	0.008325734
109	0x3cd5dd40	0.026106477
110	0x3cc4baf5	0.02401493
111	0xbc32139e	-0.010868935
112	0x3d0c8320	0.034304738
113	0xbcfb13d7	-0.030649109
114	0xbbd56e25	-0.0065133744
115	0x3b8004ee	0.0039068377
116	0x3c65c9bb	0.014025147
117	0xbbab2e82	-0.00522405
118	0xbc7aee44	-0.015315596
119	0xbbd107b6	-0.006379093
120	0xbc0faed2	-0.008769708
121	0xbbc6d5c9	-0.0060679656
122	0x3d17225a	0.036897995
123	0xbcffb2ff	-0.031213282
124	0xbcf0b796	-0.029384416
125	0xbc78392a	-0.015150348
126	0xbbdd6e84	-0.0067575593
127	0x3cebf8c1	0.028805139
128	0x3c8d9fe1	0.01728815
129	0xbb19fc2c	-0.0023496253
130	0xbc27787b	-0.010221596
131	0x3c726cad	0.014796418
132	0xbce1c667	-0.027560426
133	0x3b86f4ba	0.004118529
134	0xbc470ec9	-0.012149521
135	0x3cc313d2	0.023813162
136	0x3c726f47	0.014797038
137	0xba29a5dd	-0.0006471554
138	0xbc1efe2e	-0.009704156
139	0xbca54783	-0.020175701
140	0x3b4c266e	0.0031150836
141	0x3c8e6a6a	0.017384727
142	0xbc23d7d5	-0.010000189
143	0xbc0decbd	-0.0086624
144	0x3b7764d5	0.003774931
145	0x3c884f3f	0.01663935
146	0x3cf422a4	0.029801674
147	0x3bee3aef	0.007270209
148	0x3cc3557e	0.023844477
149	0x3c837ff6	0.016052227
150	0x3c30a7cc	0.010782193
151	0xbbf2fcf5	-0.0074154087
152	0xbc46bef5	-0.012130489
153	0x3bf9f4cb	0.0076280585
154	0x3c0b19ae	0.008490009
155	0xbc4737c9	-0.012159296
156	0xbcbabd9d	-0.022795493
157	0x3c4d776e	0.012540681
158	0x399285bc	0.0002794693
159	0xbc9dbf8c	-0.019256376
160	0x3b29977d	0.0025877648
161	0xbc543042	-0.012950959
162	0x3bd4345a	0.0064759674
163	0xbc2792c7	-0.010227866
164	0x3c094e29	0.008380451
165	0x3d0521ca	0.032502927
166	0x3cdd0545	0.026980052
167	0xbcd6f1ff	-0.02623844
168	0xbbd87dae	-0.006606779
169	0x3bb0f5bf	0.005400389
170	0xbc772642	-0.015084805
171	0xbb3c41ac	-0.0028725667
172	0x3c35ac3c	0.011088427
173	0x3c8efc42	0.01745427
174	0x3ccec934	0.025242426
175	0xbcc45bd0	-0.02396956
176	0x3c63e0dc	0.013908591
177	0xbab6b450	-0.0013939235
178	0x3baced90	0.005277343
179	0x3b8e840f	0.0043492387
180	0xbada0933	-0.0016634822
181	0xbccf3aae	-0.025296535
182	0x390e881f	0.00013592884
183	0xbc2bedab	-0.010493676
184	0xbbf72b3a	-0.007542995
185	0xbb29c67a	-0.0025905655
186	0x3cb592ed	0.022164786
187	0xbb210d19	-0.0024574457
188	0xbc198942	-0.009371104
189	0xbc593fca	-0.013259837
190	0xbc8fef07	-0.017570032
191	0x3ce2260a	0.027606029
192	0x3c92574c	0.017863892
193	0xbcb9b6fc	-0.022670262
194	0xbcd3a1ae	-0.02583393
195	0xbc4bc5f8	-0.012437336
196	0x3c7bea61	0.0153757045
197	0xbce5c372	-0.028047297
198	0x3cc57d1c	0.024107508
199	0xbc343469	-0.010998824
200	0x3be82731	0.00708475
201	0x3baeb5ab	0.005331715
202	0xbc21a546	-0.009866064
203	0x3a1df98c	0.000602626
204	0x3c6c2e56	0.014415344
205	0xbc8b6cff	-0.017019747
206	0xba9da4ae	-0.0012027228
207	0xbd297542	-0.04137159
208	0x3cc904b8	0.024538383
209	0x3b4c9f5c	0.0031222915
210	0xbc183a2f	-0.009291216
211	0x3aa52eee	0.0012602487
212	0xbcb620f6	-0.022232514
213	0xbb36a488	-0.0027869064
214	0x3c96a00b	0.018386861
215	0xbd0c5d9b	-0.034268957
216	0x3b8a1578	0.004213985
217	0xbd37bb16	-0.044856153
218	0x3c223d0f	0.009902253
219	0x3caf0e94	0.021369256
220	0x3ca006f8	0.019534573
221	0xbc93f733	-0.01806221
222	0x3bcb67a9	0.0062074256
223	0x3bf39749	0.007433806
224	0xbca176f4	-0.019710042
225	0xbc64ade1	-0.013957472
226	0x3b868508	0.004105214
227	0xbd173e30	-0.03692454
228	0x3c8fa676	0.01753543
229	0xbb6a2b63	-0.0035731427
230	0xbd17dd69	-0.037076388
231	0x3d0196ab	0.03163783
232	0x3c3acac5	0.011400883
233	0x3c075270	0.008259401
234	0x3c9977b1	0.018733831
235	0xb991d89f	-0.0002781795
236	0xbcd6b7e5	-0.026210735
237	0x3c4199ff	0.011816501
238	0xbbef0ffa	-0.0072956057
239	0x3cc07483	0.023493057
240	0x3c7eab1b	0.015543724
241	0xbd627e94	-0.055296496
242	0xbb5618bc	-0.0032668551
243	0x3be71480	0.0070520043
244	0x3bc52aa6	0.006017047
245	0x3be9fb85	0.007140579
246	0xbc92ad50	-0.017904907
247	0x3cad26fc	0.021136753
248	0xbc883133	-0.016625023
249	0xbc5fd78f	-0.013662233
250	0x3d05fdad	0.032712627
251	0xbc2e1e4a	-0.010627339
252	0x3c910030	0.017700285
253	0xbcb9698e	-0.02263334
254	0xbbf2eb0d	-0.007413274
255	0xbbc3a7c1	-0.0059709256
