dataset/price-embedding/2019-04-01-2019-04-03-lstm_model_embedding-test.npy (npy, 864640 bytes, 1 tensors)

array f4 [3377, 64]
000000 4d 15 17 bc 37 2f 88 ba 50 19 26 3c e3 c7 10 3d
       -0.009221387 -0.0010390048 0.010137871 0.035346877
000010 5b 7d 0b bc c3 ca 30 3c 38 17 37 bd 75 4f c4 bc
       -0.008513774 0.01079053 -0.044699878 -0.02396367
000020 28 f7 62 3c 7d 59 8f bc 49 9a 01 bc 38 ae 25 3d
       0.013852872 -0.017498726 -0.00791032 0.04044935
000030 f6 d3 63 bc 53 63 35 3c 20 50 b9 3c d0 62 34 bc
       -0.013905516 0.011071044 0.022621214 -0.011009887
000040 e3 23 86 bc 6d d0 96 3c 58 eb 2c bc ac 54 97 3c
       -0.016374534 0.018409932 -0.010554157 0.018472992
000050 db 29 11 bb c0 39 4d 3c dc 0f 83 3b 60 8c 58 3c
       -0.0022150192 0.012525976 0.0039996933 0.013217062
000060 22 0b 23 3c d6 af 98 3c 7a a0 7e 37 76 bc 04 3c
       0.009951385 0.018638533 1.5176944e-05 0.008101573
000070 c7 79 51 3c 4e a1 da 3c b4 27 fa bc a5 a6 96 bc
       0.012785382 0.026688244 -0.03053651 -0.01839001
000080 95 9d 65 bc 89 ba 90 bc 11 2c e2 3b a4 b8 29 3c
       -0.014014621 -0.017667072 0.006902226 0.010358963
000090 67 57 a6 3c f0 67 0d 3b c6 a1 8a 3b 2a dd f3 3b
       0.020305349 0.0021576844 0.0042307107 0.0074421363
0000a0 01 e9 7a 3c c2 03 9f 3c 85 54 56 3b 2c c3 87 bc
       0.0153143415 0.019410972 0.0032704186 -0.016572557
0000b0 c0 61 bf bc a2 6d 6d b9 22 96 27 3c 03 63 69 3c
       -0.02336204 -0.00022642923 0.010228666 0.014244798
0000c0 30 24 31 3b 76 4c 7a 3b ac 48 8f bc 0e 35 ac 3a
       0.0027029626 0.0038192547 -0.017490707 0.001313837
0000d0 be da d1 3a 4c e0 e9 3a a8 58 1e 3b 0d c8 eb ba
       0.0016010625 0.0017843335 0.002416173 -0.0017988697
0000e0 21 34 c6 bc 1d 08 f1 3b 32 2b f1 3b 9c 10 97 bc
       -0.024194779 0.0073557035 0.0073598856 -0.018440537
0000f0 0c c0 4c 3c 3a 66 c2 39 51 da 0a bb 6c 90 55 bc
       0.012496959 0.00037078728 -0.0021187256 -0.013034921
000100 c8 fa 7c 3b 87 a3 f1 bb bc 53 88 3c ed 1a 0a 3d
       0.0038601626 -0.0073742303 0.01664149 0.033717085
000110 c9 9d 14 3c 07 34 35 3b ee 7d 34 bd 6c a6 36 bb
       0.009070822 0.002764942 -0.04406541 -0.0027870191
000120 34 21 95 3c ca 73 94 bc 23 ca 18 bc 46 d8 be 3c
       0.018204309 -0.018121619 -0.009325537 0.023296487
000130 f2 10 61 bb 8d f6 a0 3c 6e 82 1e 3d 1d e9 be bc
       -0.0034342376 0.019648815 0.038698606 -0.023304516
000140 d5 c2 27 bc 63 f8 6a 3c ef 45 a5 bc f9 88 ed 39
       -0.010239323 0.014341447 -0.020174948 0.00045306215
000150 30 79 fd bb ac df 02 3d 11 07 5d 3b d5 d8 74 3c
       -0.007735394 0.03195159 0.0033726136 0.014944275
000160 12 26 ac 3c 21 a0 c2 3b e6 6c 40 bb 25 ba 8c 3b
       0.021014247 0.005939499 -0.0029361784 0.004294651
000170 d1 a1 cf bb 05 4b 0c 3d 87 07 06 bd 79 28 d7 ba
       -0.0063364287 0.03425123 -0.032722022 -0.001641526
000180 7b da e8 bb 94 2c 94 bc 80 b0 9b 3c e4 58 98 3c
       -0.007106123 -0.018087663 0.01900506 0.018597074
000190 7b 70 b0 3c 1f db 2c 3c 31 e7 60 bc 33 55 0f 3c
       0.02153801 0.010550289 -0.013726995 0.00874834
0001a0 aa 98 9b 3b b3 d5 cd 3c c0 ef 6c 3c eb 80 c6 bb
       0.0047484236 0.025126314 0.014461458 -0.0060578487
0001b0 90 9d 01 bd c9 9c 99 bc bb 13 39 3c 27 55 f1 3b
       -0.031644404 -0.018751519 0.011296208 0.0073648873
0001c0 75 83 85 3a b8 68 f4 3b 33 4f b5 bc 8c 93 22 bc
       0.0010186272 0.0074587725 -0.022132492 -0.009922873
0001d0 a8 cc 2b 3c b5 03 49 bc 33 b6 2a bc 2f e0 da bb
       0.010485806 -0.01226895 -0.010419416 -0.006679557
0001e0 59 27 ae bc 55 50 03 3d 9e 04 08 bb c1 37 93 bc
       -0.021258997 0.032059032 -0.0020754705 -0.017970921
0001f0 b2 65 1b 3b 53 c7 20 bc e3 75 a2 bc 4d f0 e3 bc
       0.0023711738 -0.009813148 -0.019831603 -0.027824545
000200 45 5f 06 3b bb c8 35 39 ce ad cd 3b 40 a1 c4 3b
       0.0020503562 0.00017336283 0.0062768226 0.006000668
000210 d7 2a d5 3c 28 87 44 bc 13 f4 aa bc fe df 63 3c
       0.026021404 -0.011995114 -0.020868337 0.013908384
000220 1c 97 6b 3c e9 29 10 bc 04 cf b6 3b 55 58 14 bc
       0.014379289 -0.008799055 0.0055788774 -0.009054263
000230 f4 82 09 bb 17 2a 8a 3c 70 9e ce 3c 86 a7 7a bc
       -0.0020982595 0.016865773 0.025222033 -0.01529873
000240 91 f0 07 3c a3 d1 49 3b 4a 3d 1c bc b4 d6 8c bc
       0.008297102 0.003079512 -0.009536097 -0.017192222
000250 1b 70 8a 3b b7 8f 5f 3c 79 84 14 3c 15 f8 e4 bb
       0.00422479 0.013645104 0.009064787 -0.0069875815
000260 bd d1 a1 3c 7a 64 67 bc 8a 1f 3f 3b 90 da b0 3c
       0.019753331 -0.014123077 0.0029163086 0.021588594
000270 7b 18 03 bc 06 6a c8 3c 06 29 66 bc fc c4 4a 3c
       -0.008001442 0.024464618 -0.014047867 0.012376066
000280 ec dd c9 3b 7b c8 8a bc 43 92 8a 3c e5 17 2a ba
       0.0061604884 -0.0169413 0.016915446 -0.0006488546
000290 e0 6b d2 bb 2e 1a 4a 3b 4a e2 ae bc 70 32 ee ba
       -0.006421551 0.0030838358 -0.021348137 -0.001817299
0002a0 d6 a1 3a bc 9e 49 bb 3b 90 94 d3 bb ed 83 47 3c
       -0.011391124 0.005715563 -0.006456919 0.01217745
0002b0 ac dc b5 bc 6c c6 ab bc 4a 32 95 bb 30 18 6f 38
       -0.022199951 -0.020968638 -0.004553114 5.7004567e-05
0002c0 16 f4 78 bb bc b3 3e bc 3c 5b 87 bc 1a 8f 65 ba
       -0.0037987283 -0.011639532 -0.016522996 -0.00087569805
0002d0 cc b9 9a 3c d2 e7 97 ba 20 f0 c2 bb c5 05 26 bc
       0.018887423 -0.0011589474 -0.0059490353 -0.0101332115
0002e0 0f cb 8c bb 6c b0 d4 3c 6c b3 22 bb 84 91 f6 bb
       -0.0042966674 0.02596303 -0.0024826182 -0.007524671
0002f0 a9 4b 41 3b a1 71 13 bc cf 20 7b bc a2 d9 c9 bc
       0.002949456 -0.008999259 -0.015327646 -0.024639908
000300 7a 98 06 bd 68 b3 df 3c 20 7f ec bb a6 63 ac 3c
       -0.032860257 0.027307227 -0.007217303 0.02104361
000310 3f 43 10 bd f8 40 cb 3c ae 0f cb bb da f3 25 bd
       -0.03522038 0.024811253 -0.0061969375 -0.040515758
000320 44 65 a7 3b 7a b1 e9 bb d6 83 56 bc 5d 7e cd 3c
       0.0051085074 -0.0071317526 -0.013092956 0.025084669
000330 56 23 d2 bc 68 ef 98 3b 27 03 51 3b f0 10 b4 3c
       -0.025651615 0.0046672113 0.0031892748 0.021980733
000340 d3 1b 66 bc 97 03 0f 3d b3 34 94 3b 86 10 9b 3c
       -0.01404472 0.034915533 0.004522884 0.018928777
000350 f7 95 05 ba c9 f8 36 3c f2 ca a6 bc 7b a0 52 bc
       -0.0005095894 0.011167713 -0.020360444 -0.012855644
000360 e0 ed 64 3b 90 02 f5 3c f4 13 89 3b 7f d5 ed bc
       0.0034931824 0.029908448 0.004183287 -0.029032467
000370 97 f2 11 bc 7b b3 d4 3c 5b 6f 0f 3c 7d e3 ef bc
       -0.008907936 0.02596449 0.008754577 -0.02928328
000380 56 9d a0 3b b6 3a a1 3c 07 d7 c9 bc e9 bb af 3c
       0.0049015684 0.019681316 -0.024638666 0.021451907
000390 cf f3 48 3c 70 78 13 3c 2e 18 87 3c ee 0d 5c 3c
       0.01226516 0.0090008825 0.016491022 0.0134310555
0003a0 7f 2b 19 bc 5a 7d 6b bc bc 5e 8d 3c 2d 3b 99 bc
       -0.009348749 -0.014373148 0.017257087 -0.018704975
0003b0 5d 13 28 3c 56 01 d1 3c 80 39 ba 3c 4e 00 2d bc
       0.010258523 0.025513332 0.022732496 -0.010559155
0003c0 c0 08 68 bc de 83 8a 3b 1a 49 8d bc 1e 6b 71 bc
       -0.014162242 0.0042271456 -0.017246772 -0.014735011
0003d0 66 41 2e 3c 54 ab b5 3c 79 1e f6 3c 8d 77 60 bb
       0.010635709 0.022176422 0.030043827 -0.0034250945
0003e0 81 30 66 bc 9b 39 ea bc 11 b2 6f 38 11 aa b8 3a
       -0.01404965 -0.028591922 5.7147878e-05 0.001408877
0003f0 6e 91 7c bc 37 9e a3 3c 57 d7 ad 3c bb 71 2d 3c
       -0.0154155325 0.019972904 0.021220846 0.0105861975
